exported_models/generator_penguins.pth (torch, 692430 bytes, 14 tensors)

l1.weight f4 [256, 136]
0	0xbfe0674f	-1.7531527
1	0xc00fe845	-2.2485516
2	0x3edb539b	0.42837223
3	0x3f6089d4	0.8771031
4	0x3f9a66e8	1.2062654
5	0xbebb32b2	-0.36562115
6	0x3fdc65aa	1.7218525
7	0xbed23605	-0.4105684
8	0x3f28b850	0.6590624
9	0xbe124c8f	-0.14287017
10	0xbf75e8b8	-0.96058226
11	0x3f558801	0.8341065
12	0xbfafdcf6	-1.3739307
13	0xc00766dd	-2.1156533
14	0xbf9e901e	-1.2387731
15	0x3f5419f3	0.82852095
16	0x3e3a3508	0.18184292
17	0xbf306639	-0.6890598
18	0xbe40d6d6	-0.18831953
19	0xbf28b380	-0.65898895
20	0xbf450c74	-0.76972127
21	0xbec7f0bb	-0.3905085
22	0xbfc9758d	-1.5738999
23	0x3f094dca	0.5363432
24	0x3f73910c	0.951432
25	0xbe80450f	-0.25052688
26	0xbf171b56	-0.59026086
27	0x400ce51d	2.201484
28	0x3e9f6a42	0.31135756
29	0xbf575fce	-0.8413056
30	0xbfa8c174	-1.3184037
31	0x3ed8da9a	0.4235428
32	0x3f725f5b	0.9467675
33	0x3f7f9c68	0.9984803
34	0x4011e7f1	2.2797816
35	0x3bdabd88	0.006675426
36	0xc0067f4d	-2.1015198
37	0x3fd9638f	1.6983508
38	0x3ce8d82a	0.028423388
39	0x3e235195	0.1594909
40	0x3f37524c	0.7160995
41	0xbff4be25	-1.9120528
42	0x3f9cc44f	1.2247409
43	0xbdbe79ad	-0.093005516
44	0x3f6166cb	0.88047475
45	0xbff4d389	-1.9127055
46	0x3fa9f71d	1.3278538
47	0x3faacbd3	1.3343452
48	0xbeb229f4	-0.34797633
49	0x3f8448e0	1.033474
50	0xbd705394	-0.058673456
51	0xc016fc63	-2.3591545
52	0xbf0320bd	-0.5122183
53	0x3f57a967	0.8424286
54	0xbf2f1938	-0.68397856
55	0x3fbf309b	1.4936708
56	0x3e391d36	0.1807755
57	0xbfab44b9	-1.3380347
58	0xbea5fdfe	-0.32420343
59	0x3e94a2c3	0.29030427
60	0x3e906539	0.28202227
61	0xbeb41b65	-0.3517715
62	0xbfa1e56c	-1.2648139
63	0x3f40b5f0	0.75277615
64	0x40213c41	2.5193026
65	0xbe0e1cd5	-0.13878186
66	0xbf3cc64b	-0.7374007
67	0x3d9adcee	0.0756167
68	0x3e9888c0	0.29791832
69	0x3fb822ae	1.4385583
70	0xbf5edd28	-0.8705621
71	0x3fbbab4c	1.4661651
72	0xbcfcf00c	-0.030876182
73	0xbf8f5d4a	-1.1200345
74	0x3e3c688e	0.1839926
75	0xbfbf774e	-1.4958284
76	0x3e945988	0.28974557
77	0xbf0b53b5	-0.544246
78	0xbf7d5421	-0.98956496
79	0x3e51203a	0.2042245
80	0xbe90dfb5	-0.28295675
81	0xbf2b29c3	-0.668606
82	0xbf47a172	-0.7798072
83	0x3f5b672e	0.85704315
84	0x3faebec2	1.3651965
85	0x3fb265a6	1.3937271
86	0x3db8ed81	0.09029675
87	0x3e296b32	0.16544798
88	0xbf949ff3	-1.1611313
89	0xc0216c20	-2.5222244
90	0x3f072292	0.52787125
91	0xbf320f83	-0.6955492
92	0xbe94e732	-0.29082638
93	0xbf2123f4	-0.62945485
94	0x3fb960f9	1.4482719
95	0x3edc71ef	0.43055674
96	0x401f6df3	2.4910858
97	0x3ffe82a5	1.988362
98	0x3faf3931	1.3689328
99	0x3f1330eb	0.5749652
100	0xbeb2a77c	-0.34893405
101	0xbea744ca	-0.3266967
102	0x3f50ac0a	0.8151251
103	0xbea929ba	-0.33039647
104	0x4013f5e9	2.3118842
105	0xbfa0d14f	-1.2563876
106	0x401b4e72	2.426663
107	0x3f2eea25	0.68326026
108	0xbf9ab0e3	-1.2085232
109	0x3fc8498c	1.5647445
110	0xbfbb8153	-1.4648842
111	0x3f603980	0.8758774
112	0xbf0db910	-0.5536051
113	0x3fb73896	1.4314144
114	0x3fc9f468	1.5777712
115	0xbfd18145	-1.6367575
116	0x3f5b92ab	0.8577067
117	0x3f06ebff	0.5270385
118	0x4011cf1c	2.278266
119	0xbf4e5141	-0.80592734
120	0xc00c7283	-2.1944892
121	0xbf4959c7	-0.78652614
122	0x3fb4329c	1.4077945
123	0xbd8c66e0	-0.06855559
124	0xbe820f5b	-0.2540234
125	0x3eead7f7	0.45867893
126	0x3e13664b	0.1439449
127	0x3f7eea47	0.9957623
128	0x40509492	3.259068
129	0xc00d362e	-2.2064319
130	0xbff9d87a	-1.9519188
131	0x3ea13ae3	0.3149024
132	0x3f580bbe	0.8439292
133	0xbfdaf851	-1.710703
134	0x3ffa1119	1.9536468
135	0xbff70797	-1.9299191
136	0x3ecc407f	0.39892957
137	0xbf38cff1	-0.72192293
138	0x401392a6	2.3058257
139	0x3e7c379a	0.24630585
140	0x3f36f377	0.7146525
141	0xbd2ba0a4	-0.041901246
142	0xbef3399c	-0.4750489
143	0x3e69bfc6	0.22827062
144	0x40885c61	4.2612767
145	0xbf446e79	-0.7673107
146	0xbfc794da	-1.5592301
147	0x3f77452a	0.9658991
148	0xbf1468bf	-0.5797233
149	0x404094af	3.009075
150	0x40b3252d	5.598288
151	0xbf72a8c9	-0.94788796
152	0xbf983794	-1.1891961
153	0xbf8bfeb9	-1.093711
154	0xc08e9464	-4.455614
155	0xbfbf86f0	-1.4963055
156	0xbf00625e	-0.50150096
157	0x3d7ea95f	0.062173244
158	0xc08f5f16	-4.480357
159	0xc03c3e12	-2.9412885
160	0x3fa5c4bf	1.2950667
161	0x3f7d4456	0.989324
162	0x40429f72	3.0409818
163	0x3eb3d351	0.3512216
164	0xc060fbe3	-3.515374
165	0x3f9389cb	1.1526426
166	0x400b43d8	2.1760159
167	0xbf42fdc4	-0.76168466
168	0x4029caf0	2.6530113
169	0x3ff146e9	1.8849765
170	0x3f2fdc0f	0.6869516
171	0xbc80e40d	-0.015733743
172	0x40247c43	2.5700843
173	0xbfac3956	-1.3454998
174	0xbf30471a	-0.6885849
175	0xbeaab7ed	-0.3334345
176	0x3ed6efd9	0.41979864
177	0xbf6a4f36	-0.91527116
178	0x3ebc73a3	0.36806974
179	0xbe9d0bc9	-0.30673054
180	0x3e3a436f	0.18189786
181	0x3e810bf5	0.25204435
182	0xc0965f1a	-4.699109
183	0xbf5c6931	-0.8609801
184	0x3f536b5e	0.82585704
185	0xc08ac98d	-4.3371034
186	0xbf365f5e	-0.7123927
187	0x3ea5de4a	0.32396156
188	0x3f2ff075	0.68726283
189	0x408123a2	4.0355997
190	0x3de56a35	0.11201898
191	0xbff0a190	-1.8799305
192	0xbcfb9366	-0.030709933
193	0x3f6ed52f	0.9329404
194	0x3fb2b5d3	1.3961738
195	0x3d19b26b	0.03752367
196	0x40145323	2.3175743
197	0xc08606d3	-4.188333
198	0xbf3a88ba	-0.7286488
199	0xc00b0703	-2.172303
200	0x402f2cb3	2.7371032
201	0xbee64709	-0.4497607
202	0xc0acbf3a	-5.398343
203	0x3ef79871	0.4835849
204	0xc0951e54	-4.659952
205	0xc0387e59	-2.8827116
206	0x3f767247	0.96268123
207	0x3e758e96	0.23980173
208	0x400ac048	2.167986
209	0x3f93eb45	1.1556174
210	0x3e06b7bf	0.13156031
211	0x40810f01	4.0330815
212	0x3fb81d62	1.4383967
213	0x3e45ec48	0.19328415
214	0x40a31b61	5.097092
215	0xc0814a84	-4.040346
216	0x3e151987	0.14560519
217	0x3eb20888	0.34772134
218	0x40241f11	2.5643961
219	0x3fad04e6	1.351712
220	0xbf9882ae	-1.191488
221	0x3f34b7b0	0.70592785
222	0x401eaf74	2.4794588
223	0x3fd7bf76	1.6855304
224	0x3fdc48f6	1.7209766
225	0x408a2eb4	4.318201
226	0xc07162fd	-3.7716668
227	0xbf3cf881	-0.73816687
228	0xbfa0069b	-1.2502016
229	0x3f779d90	0.96724796
230	0xc0063580	-2.0970154
231	0x3ef5aa3d	0.47981444
232	0xbfbed2b6	-1.4908054
233	0xbff27da5	-1.8944594
234	0x4092725f	4.5764613
235	0x3fb85b8b	1.4402937
236	0x3fa716f0	1.3053875
237	0xbecfd93e	-0.4059543
238	0x400a4275	2.1603062
239	0xbfb39007	-1.4028329
240	0xbfeec9c3	-1.8655323
241	0x40a90a33	5.282495
242	0xc013aaaa	-2.3072915
243	0x401f8e87	2.4930742
244	0x3f0ff720	0.5623646
245	0xc0a7692a	-5.2315874
246	0x3ed1cacf	0.40975043
247	0xc004b05c	-2.0732641
248	0xc0317ccb	-2.7732418
249	0xc029c7a7	-2.6528108
250	0xbeac88ed	-0.33698216
251	0xc00a3134	-2.1592531
252	0xbff306f3	-1.8986496
253	0x3fe2513f	1.7681044
254	0xbb9c00e3	-0.004760848
255	0xbf4ec97e	-0.807762

l1.bias f4 [256]
0	0x3d709623	0.05873693
1	0xbd2c10b9	-0.042008135
2	0xbd2d6484	-0.042332187
3	0x3c3c53d1	0.011494593
4	0x3ce8445b	0.028352907
5	0xbd51c56f	-0.051213678
6	0xbd842d30	-0.06453931
7	0x3c9c1032	0.019050691
8	0xbd7df280	-0.061998844
9	0x3d8d118b	0.06888112
10	0x3d5af1d0	0.053453267
11	0xbc328991	-0.010897056
12	0xbc59227d	-0.013252852
13	0x3d97ac7a	0.07405944
14	0x3c9da079	0.019241558
15	0x3c376b35	0.011194994
16	0x3cb02c6d	0.021505559
17	0x3bd55766	0.006510663
18	0xbd82e433	-0.06391182
19	0x3d89d138	0.067293584
20	0xbd934993	-0.071917675
21	0x3d96aeb8	0.07357544
22	0xbc866a7a	-0.016408194
23	0x3d37837a	0.04480312
24	0xbda20960	-0.079119444
25	0x3d9c706c	0.0763863
26	0xbd28c6c1	-0.04120517
27	0x3ce19848	0.027538434
28	0x3b04aeee	0.0020245868
29	0x3b916d67	0.0044380906
30	0x3d639c84	0.055569187
31	0x3d84e481	0.06488896
32	0x3d9c7263	0.07639005
33	0xbd2c8bc9	-0.042125497
34	0x3d4b826c	0.049684927
35	0xbd45f81f	-0.04833233
36	0xbd05366e	-0.03252261
37	0xbd45e136	-0.04831048
38	0x3d3fa3d4	0.046787098
39	0xbd2bec30	-0.041973293
40	0x3d0f8796	0.035041414
41	0xbc251338	-0.010075383
42	0x3c9ea06b	0.019363603
43	0x3c7b1e34	0.015327025
44	0x3cc044cf	0.02347031
45	0x3da42b15	0.0801603
46	0x3c800199	0.015625762
47	0xbcddf5bb	-0.027094712
48	0x3d7081c5	0.058717508
49	0x3d47526d	0.04866259
50	0x3ca14697	0.01968698
51	0x3d6f379d	0.058402646
52	0xbda739de	-0.08165334
53	0x3b9f23bd	0.0048565553
54	0x3c85a71c	0.016315036
55	0xbdaab969	-0.083361454
56	0x3d58c9c2	0.052926786
57	0x3d414076	0.047180615
58	0x3d5bb9af	0.05364388
59	0xbd9d92ff	-0.07694053
60	0x3d1a0c92	0.037609644
61	0xbcbb2fe7	-0.02284999
62	0x3d8da829	0.0691684
63	0xbcb5befd	-0.022185797
64	0xbcd7d8bc	-0.026348464
65	0xbcbf6564	-0.023363777
66	0x3d58b94d	0.05291109
67	0x3d85d1ef	0.06534182
68	0x3d8cfc8c	0.06884107
69	0xbd6f7077	-0.058456864
70	0x3d209c11	0.039211337
71	0x3cd971be	0.026543494
72	0xbc8c317a	-0.017113436
73	0xbd84aeac	-0.064786285
74	0xbd857c71	-0.06517876
75	0x3d2c4b7e	0.042064182
76	0xbd804568	-0.06263238
77	0x3d458113	0.048218798
78	0x3d9e1892	0.0771953
79	0xbc901b47	-0.017591132
80	0x3d04cf8b	0.03242449
81	0x3c82ad87	0.015951885
82	0xbd59f8a0	-0.053215623
83	0x3d07dce1	0.03316963
84	0xbd9ee142	-0.07757808
85	0xbbe6ca51	-0.007043161
86	0xbd9ddf24	-0.07708576
87	0x3d5b268a	0.05350355
88	0xbd577ca7	-0.052609112
89	0x3be63f60	0.007026598
90	0xbcedf196	-0.029045861
91	0x3d5f314d	0.054490376
92	0x3da5adfe	0.08089827
93	0x3d9da000	0.07696533
94	0x3d90c7cd	0.07069359
95	0x3c598790	0.0132769495
96	0x3cc5cde0	0.02414602
97	0x38bc24b7	8.971377e-05
98	0xbca0e5b2	-0.019640777
99	0xbce4bc26	-0.027921747
100	0x3cb121e0	0.021622598
101	0xbd93371c	-0.07188246
102	0x3d8a9117	0.06765955
103	0xbbe99ea8	-0.007129509
104	0xbd9b0575	-0.075694
105	0x3d8ef31d	0.06979964
106	0xbd1606f8	-0.03662774
107	0x3d8f2207	0.06988912
108	0xbc9128f3	-0.017719721
109	0x3d6375ae	0.05553215
110	0x3bd26cf0	0.006421678
111	0xbd04ab45	-0.032389898
112	0xbd9eed7a	-0.07760139
113	0xbce02555	-0.027361551
114	0xbb901a07	-0.004397634
115	0xbda45eeb	-0.08025917
116	0x3d24c324	0.040225163
117	0x3ca52b74	0.020162322
118	0x3da8baca	0.08238752
119	0xbd9dcccc	-0.077050775
120	0x3c2da3a9	0.010598102
121	0xbb52503d	-0.0032091283
122	0x3cc99d53	0.02461115
123	0xbd661060	-0.05616796
124	0xbc95f886	-0.018306982
125	0xbccc13d5	-0.0249118
126	0x3d79245c	0.06082569
127	0x3d8699e5	0.06572322
128	0xbc4e6aba	-0.012598688
129	0x3ca91fe9	0.020645099
130	0x3cb0205d	0.021499807
131	0xbd159796	-0.036521517
132	0x3d6e8f27	0.05824199
133	0x3c932368	0.017961219
134	0xbcbca9eb	-0.023030242
135	0x3b1f753e	0.0024331356
136	0x3d412d13	0.047162127
137	0x3ca8674c	0.020557068
138	0xbc9eeb3d	-0.01939928
139	0xbd0c3965	-0.034234423
140	0x3d152ffc	0.036422715
141	0x3d6dc5e0	0.058050036
142	0x3ccd59ad	0.025067175
143	0xbd332f8b	-0.043746512
144	0x3cec8a61	0.028874578
145	0xbd843235	-0.06454889
146	0x3d8757f0	0.066085696
147	0x3c300848	0.010744162
148	0xbc73c3b5	-0.014878203
149	0x3d556752	0.052100487
150	0x3daf6a00	0.0856514
151	0x3cb1dcd6	0.021711748
152	0x3d873f2f	0.06603848
153	0xbd0a9b74	-0.033839658
154	0xbd0eed05	-0.03489401
155	0xbd0d2703	-0.034461033
156	0xbd51c762	-0.051215537
157	0x3ceab7fd	0.028652186
158	0xbdaa1216	-0.08304231
159	0x3d5fe53d	0.054661978
160	0x3cda0cc3	0.026617413
161	0xbbcbadc8	-0.0062157847
162	0x3d595cc0	0.05306697
163	0xbda7a35b	-0.081854545
164	0xbd98b919	-0.074571796
165	0xbd80bfa1	-0.0628655
166	0x3cded70e	0.027202155
167	0x3d9cc9af	0.076556556
168	0x3d5803b1	0.052737895
169	0xbda9b081	-0.082856186
170	0x3d1f3c34	0.038875774
171	0x3da1800f	0.07885753
172	0xbd1dd8b9	-0.03853676
173	0x3cd2fbe8	0.025754884
174	0x3cfed64a	0.03110804
175	0xbd39cec3	-0.0453632
176	0xbd8fca41	-0.07020999
177	0xbc96f9a2	-0.018429581
178	0xbbf69937	-0.007525589
179	0xbcef5ff5	-0.02922056
180	0x3d5c81c9	0.05383471
181	0xbd5b5919	-0.053551767
182	0x3d2dd6f7	0.042441335
183	0xbd0a4e4a	-0.03376607
184	0xbc06306e	-0.0081902575
185	0x3c749551	0.014928178
186	0x3d8e8e2d	0.06960712
187	0x3d86aca1	0.06575895
188	0xbd23cf1f	-0.039992448
189	0x3d36a155	0.044587452
190	0xbcabb8ec	-0.020962201
191	0xbc86d186	-0.01645733
192	0xbd752b57	-0.059855785
193	0x3d96696b	0.07344326
194	0x3d5e0769	0.054206286
195	0xbd9041be	-0.07043789
196	0x3da08e03	0.078395866
197	0xbb8c1ac5	-0.004275652
198	0x3c878f6d	0.016547883
199	0xbd1f190e	-0.038842253
200	0xbd449698	-0.04799518
201	0x3c3fc7c0	0.011705339
202	0xbc8691f4	-0.016427018
203	0xbaaff41c	-0.0013424191
204	0xbd4ecdd4	-0.05048926
205	0xbd6197d2	-0.055076428
206	0x3d00518d	0.031327773
207	0x3d96a7eb	0.073562466
208	0x3d917a15	0.071033634
209	0x3d0b75c9	0.034047876
210	0x3daaf187	0.08346849
211	0xbcc8d44a	-0.02451529
212	0x3cfe69fb	0.031056395
213	0xbc8945f0	-0.016756982
214	0x3c3ac30a	0.01139904
215	0xbd21c695	-0.039496023
216	0x3c81fa41	0.0158664
217	0xbd80f0e7	-0.062959485
218	0xbd9a0651	-0.07520736
219	0xbd8a775c	-0.06761047
220	0xbd6c4624	-0.05768408
221	0xbd94d430	-0.07267034
222	0x3d8e4876	0.069474146
223	0xbbda38b6	-0.0066595925
224	0xbc55a46d	-0.01303969
225	0x3c2a1265	0.010380362
226	0xbcce2031	-0.025161834
227	0x3d05eb88	0.032695323
228	0x3d20db6d	0.03927176
229	0xbda216cd	-0.07914505
230	0x3c5c4a8e	0.01344551
231	0x3d895ab9	0.06706757
232	0x3d7711a3	0.060319554
233	0xbd074b42	-0.033030756
234	0xbd95a6a8	-0.07307178
235	0x3d587fe5	0.052856345
236	0xbd8f838e	-0.07007514
237	0x3d396938	0.04526636
238	0x3ceafe30	0.02868566
239	0x3c6a51c9	0.014301726
240	0xbd5fd863	-0.05464972
241	0x3d7f5d76	0.06234499
242	0x3d8bfde6	0.06835537
243	0x3b424c49	0.002964752
244	0x3d055897	0.03255519
245	0xbd7ebfa9	-0.0621945
246	0x3daeaa30	0.085285544
247	0xbccd935d	-0.025094682
248	0xbd784cab	-0.06061999
249	0x3d952fbc	0.07284495
250	0xbc2b5c3b	-0.010459001
251	0xbd1113d2	-0.035419293
252	0x3d20f770	0.039298475
253	0x3c39347f	0.01130402
254	0x3cf04224	0.029328413
255	0xbcd8cc29	-0.026464539

bn1.weight f4 [256]
0	0x402249db	2.5357578
1	0x401b75f1	2.4290736
2	0x409dc362	4.9301004
3	0x40a0fcfb	5.0308814
4	0x3c50f26e	0.012753112
5	0x3e2ac8e8	0.16678202
6	0x40e9857d	7.297545
7	0x3d975290	0.073887944
8	0x3ddfd601	0.1092949
9	0x3de12ae9	0.109945126
10	0xbe87040d	-0.26370278
11	0x3e605ce6	0.21910438
12	0x409a5f11	4.824105
13	0x3c11db38	0.0089023635
14	0xbe4a9b56	-0.19785818
15	0x400f2bcd	2.2370484
16	0x3dca17c3	0.098678134
17	0xbd7ef5e1	-0.062246207
18	0x3c4fe27f	0.012688278
19	0x3e4c382c	0.19943303
20	0xbd18a335	-0.03726502
21	0x3dd91f46	0.10601668
22	0x403eb260	2.9796371
23	0x3e5db675	0.21651633
24	0xbe00660f	-0.12538932
25	0x3cdde5c5	0.027087102
26	0x3e2b586a	0.16732946
27	0xbe43dd49	-0.19127382
28	0x3ef9904f	0.4874291
29	0x3dc9eba1	0.09859396
30	0x3dbf523d	0.093418576
31	0x3f3b0928	0.73060846
32	0x3d6a29ff	0.057168957
33	0x3d00e247	0.031465795
34	0xbd7d9cb7	-0.061917033
35	0x3e0c0a92	0.13675907
36	0x40d6c1df	6.711166
37	0x402e5094	2.723668
38	0x3e99e940	0.30060768
39	0x3e4bf5a3	0.19917922
40	0x4002770f	2.0385168
41	0x3d8e9dbc	0.06963679
42	0x3e394ee3	0.18096499
43	0x3e14830e	0.14503118
44	0x3d89c0ff	0.06726264
45	0x40e559e8	7.167225
46	0x3e5caf04	0.21551138
47	0xbdd115c7	-0.10209232
48	0xbd0e556e	-0.03474944
49	0x410bba29	8.732949
50	0x40c1b2dd	6.053084
51	0x3e778947	0.24173461
52	0x3e9d819f	0.30762956
53	0x3f1f702d	0.6228054
54	0x3e2d1b7c	0.16905016
55	0x404c12bd	3.1886437
56	0x4020a326	2.5099578
57	0x40c45a5f	6.1360316
58	0x40b25595	5.572947
59	0x3e073d4b	0.13206975
60	0x402662eb	2.5997875
61	0x3fc81fa9	1.5634662
62	0xbfc1411a	-1.5097992
63	0x3fff76ec	1.9958167
64	0x40af0da6	5.470416
65	0x3e2a27a6	0.16616687
66	0x408d3ae7	4.41344
67	0xc04cfa1b	-3.2027652
68	0x41045ed7	8.273154
69	0x40996303	4.7933364
70	0x400ea84b	2.2290218
71	0xbe0b6978	-0.13614452
72	0x3e182184	0.14856535
73	0x3d8d4d3f	0.06899499
74	0x40d76821	6.731461
75	0x40a1d29c	5.056959
76	0x408a822c	4.32839
77	0x3f74ec3e	0.95672977
78	0x3e25d61b	0.16194956
79	0x3e330109	0.17480864
80	0x3db04f08	0.08608824
81	0x3e0fe55e	0.1405234
82	0x3fde28eb	1.7356237
83	0x3cfa0d6b	0.030523976
84	0x3d476fbf	0.048690554
85	0x3e06d139	0.1316575
86	0x3bde96bb	0.006792871
87	0x3eb81783	0.35955438
88	0x3e3ca443	0.18422036
89	0x3e11d4c7	0.14241324
90	0x3e4f1dbe	0.2022619
91	0x3df5bad3	0.119985245
92	0x40a46f40	5.1385803
93	0x3d72206f	0.059112962
94	0x4002ee9e	2.045814
95	0x4087a152	4.2384424
96	0x3d2704dd	0.040776122
97	0x3de233fe	0.11045073
98	0x4020b510	2.5110512
99	0xbcaebdd4	-0.021330751
100	0xbfec60d9	-1.8467056
101	0x3e72f7af	0.23727296
102	0x403bd243	2.9347084
103	0x3e211b9b	0.15733187
104	0x3e6a7fbc	0.2290029
105	0x3d69f655	0.057119686
106	0x3b10175d	0.0021986582
107	0xbd2476e4	-0.040152445
108	0x4093266d	4.5984406
109	0x40cb32e8	6.349964
110	0x3fd60caf	1.6722621
111	0x3cb8131a	0.022470046
112	0x4077e038	3.8730602
113	0x3e04e9ee	0.12979862
114	0x408f3208	4.4748573
115	0x4038a683	2.885163
116	0xc023b4be	-2.5579066
117	0x40081a96	2.1266227
118	0x3d89de66	0.06731872
119	0x3e86545e	0.26236242
120	0x3e93b370	0.28847837
121	0x3da5503f	0.08071946
122	0x40b8d772	5.7762995
123	0x3e0a63a2	0.1351457
124	0xbd113922	-0.035454877
125	0x409c455f	4.883468
126	0xbcf57ea9	-0.029967623
127	0xbe9358c1	-0.2877865
128	0xbd8d77ee	-0.069076404
129	0x4075920d	3.8370392
130	0x3d622952	0.055215187
131	0x3e4dfc46	0.20115766
132	0x3decab45	0.115561046
133	0x4031c78d	2.7778046
134	0x40239c3d	2.556411
135	0x3e028e90	0.12749696
136	0x3dc3988c	0.095505804
137	0x3e3a54e0	0.1819644
138	0x3fdf5d5c	1.7450366
139	0x3d7c28a0	0.06156218
140	0x3fc15d6b	1.5106634
141	0x3e53e43b	0.20692532
142	0x3e692038	0.22766197
143	0x4045a177	3.08798
144	0x4081c237	4.054958
145	0x3da9bd93	0.082881115
146	0x3e27cfd1	0.1638787
147	0x3dfdba1a	0.12389012
148	0x4000ad83	2.0105903
149	0x3e548a2c	0.20755833
150	0x3dab3c49	0.08361108
151	0x4082ee95	4.091624
152	0x3dcfb909	0.101427145
153	0x404847d1	3.1293833
154	0x3e148e9f	0.1450753
155	0xbe16ccbc	-0.14726537
156	0x3d28d1cd	0.041215707
157	0x40d88bfa	6.767087
158	0x3dd649ff	0.104633324
159	0x3def3412	0.116798535
160	0xc07edc6b	-3.9822032
161	0x402a60d7	2.6621606
162	0x3de8707e	0.11349581
163	0x3f19f989	0.60146385
164	0x40a41e8e	5.12873
165	0x3d8d8bf2	0.06911458
166	0x3cb11ce8	0.021620229
167	0x3fc9ecfa	1.5775445
168	0x38f5e9e0	0.00011726073
169	0xc033e1e9	-2.8106635
170	0x4083134b	4.096105
171	0x3cba483c	0.022739522
172	0x3db7db8d	0.08977423
173	0x3e3132d3	0.17304544
174	0x3eb5a17e	0.3547477
175	0x3c7f5feb	0.0155868335
176	0x40c5905d	6.1738725
177	0x3d18bbb8	0.037288398
178	0xbda5dbb2	-0.08098544
179	0x409ad9ea	4.839101
180	0xbb41a45e	-0.0029547433
181	0x3d60a794	0.054847315
182	0x3f130190	0.5742426
183	0x402042b7	2.504072
184	0x3e42e72e	0.190335
185	0x408444d7	4.1334033
186	0x3e9ea09a	0.30981904
187	0x40d2abfc	6.583494
188	0x3e9969d1	0.29963544
189	0x40be6768	5.950123
190	0xbd93a9ba	-0.07210107
191	0x40cee374	6.4652653
192	0x3c665fc1	0.014060915
193	0x3d662e5a	0.056196548
194	0x40086cd8	2.1316433
195	0x401c5516	2.4426932
196	0x40a533ea	5.162587
197	0xbd66fe82	-0.05639506
198	0x3d139b83	0.03603698
199	0x3e44d91c	0.19223446
200	0x4099c9a8	4.8058662
201	0x3dceb5fd	0.10093305
202	0x3da9168b	0.08256253
203	0xbd23722b	-0.0399038
204	0x405d40de	3.4570842
205	0x3bbb9fec	0.0057258513
206	0x40203e4f	2.503803
207	0x405df21f	3.467903
208	0x3e21eee7	0.1581379
209	0x40caa75d	6.33293
210	0xbd7726c1	-0.060339693
211	0x3d939155	0.07205454
212	0x3e88ebd7	0.26742432
213	0x40d4a458	6.6450615
214	0xbe2d703a	-0.16937342
215	0x402019de	2.5015788
216	0x3dc28fcd	0.09500084
217	0x3ea0f11a	0.31433946
218	0x3d155d49	0.036465917
219	0x3ff20012	1.8906271
220	0x412942a0	10.578766
221	0x3efc294b	0.49250254
222	0x3db12ca8	0.08651096
223	0x4047bcb5	3.1208928
224	0x40e983f8	7.2973595
225	0x3d3cf0cd	0.046128083
226	0x40432152	3.0489087
227	0x408a1f37	4.3163104
228	0xc0890c59	-4.2827573
229	0x3e40ee1f	0.18840836
230	0x4038c119	2.8867857
231	0xbc7ebe4e	-0.015548302
232	0x3dd7489b	0.10511895
233	0x40e8189c	7.253004
234	0x3e6ed82b	0.23324649
235	0x406e1b8b	3.720431
236	0x4041450f	3.01984
237	0xbe110a2f	-0.14164041
238	0x407b1184	3.922944
239	0x404a689d	3.162635
240	0x40e5648d	7.1685243
241	0x3ec3dbfc	0.38253772
242	0x408f06a4	4.4695606
243	0x3e6c2804	0.2306214
244	0x3f0fc73e	0.56163394
245	0x3e28d792	0.16488484
246	0x4028bd7f	2.636566
247	0x3feea01e	1.8642614
248	0x403d7689	2.9603598
249	0xbdae4c8d	-0.08510695
250	0x3e7b3c2d	0.24534674
251	0xc086f292	-4.2171106
252	0x3e0d5429	0.13801636
253	0x3f09a1ae	0.5376233
254	0x3fdeb50b	1.7399
255	0x40843e1a	4.1325808

bn1.bias f4 [256]
0	0xbcb57c5c	-0.022154026
1	0xbfc48d27	-1.5355576
2	0xc01f5175	-2.4893467
3	0xbfa8348f	-1.314104
4	0xbd6f28bd	-0.05838846
5	0xbf67f07a	-0.90601313
6	0xc0b2538d	-5.572699
7	0xbea7ad82	-0.32749563
8	0xbf52c3d4	-0.8233006
9	0xbf3c040e	-0.73443687
10	0xbf9e1142	-1.2349017
11	0xbf867791	-1.0505239
12	0xbe9e8ccb	-0.30966792
13	0xbd748400	-0.059696198
14	0xbf4973b4	-0.78692174
15	0xbf7d12dc	-0.988569
16	0xbf1ddb2c	-0.61662555
17	0xbeaab655	-0.33342233
18	0xbe00351e	-0.12520263
19	0xbf6c36d6	-0.92271173
20	0xbee1d48a	-0.44107467
21	0xbedf1362	-0.43569475
22	0x3f32d42b	0.6985499
23	0xbfa1e7af	-1.2648829
24	0xbf65bfc3	-0.8974573
25	0xbf0ee099	-0.5581146
26	0xbf2beb2d	-0.67155725
27	0x4027a7a6	2.6196074
28	0xc0079be0	-2.1188889
29	0xbee78c98	-0.45224452
30	0xbf16dafa	-0.5892788
31	0x3ec6624d	0.38746873
32	0xbe76204d	-0.2403576
33	0xbf29b916	-0.66298044
34	0x4021e495	2.5295765
35	0xbf360f9a	-0.71117556
36	0xc044b015	-3.0732472
37	0xc02bf159	-2.6866057
38	0xbf9659bf	-1.1746138
39	0xbf6154d9	-0.8802009
40	0xbf61e6e1	-0.8824292
41	0xbeded90f	-0.43524978
42	0xbf7594d1	-0.959302
43	0xbf2abe67	-0.6669678
44	0xbe9f0191	-0.31055883
45	0x3e9c1e31	0.30491784
46	0xbf911da7	-1.1337174
47	0xbf1db97d	-0.6161116
48	0xbf76335c	-0.9617212
49	0xbff8faf7	-1.9451588
50	0xbe201438	-0.15632713
51	0xbfb389f4	-1.4026475
52	0xbfae742e	-1.3629205
53	0x3f24455a	0.6416832
54	0xbf8ecdc0	-1.115654
55	0x3fd21630	1.6413021
56	0xbfa2e1ef	-1.27252
57	0x3e08b270	0.13349319
58	0xbe53504f	-0.20636104
59	0xbf25b8f6	-0.64735353
60	0xc00dfc2d	-2.2185166
61	0xbfd4363e	-1.6579053
62	0x3f99d797	1.2018918
63	0xbdabfef3	-0.08398237
64	0xc0770cab	-3.8601482
65	0xbf585ad0	-0.8451357
66	0xc003e0b2	-2.0605893
67	0xc06b4329	-3.6759741
68	0x3efabc2b	0.48971686
69	0xbeaeca6a	-0.34138805
70	0xc0063916	-2.0972342
71	0xbf06751b	-0.5252244
72	0xbf731d68	-0.94966745
73	0xbec3af96	-0.382199
74	0xc0866290	-4.1995316
75	0xc06191f9	-3.5245345
76	0xbfe2873a	-1.7697518
77	0x406ace8c	3.6688566
78	0xbf3362c2	-0.7007257
79	0xbfd48445	-1.6602865
80	0xbf9e3056	-1.2358501
81	0xbf3bbfe7	-0.73339695
82	0xc06669dd	-3.6002114
83	0xbe3ebfeb	-0.18627898
84	0xbe98ab40	-0.29818153
85	0xbf236afd	-0.63835126
86	0xbe2a029d	-0.1660256
87	0xbf8ff2cb	-1.124597
88	0xbf722156	-0.94582117
89	0xbf1e6ae9	-0.6188188
90	0xbf65f3d5	-0.89825183
91	0xbf06004c	-0.52344203
92	0xc0ac8b12	-5.3919764
93	0xbf411d1f	-0.7543506
94	0x3e25ab73	0.16178684
95	0xbffbd45e	-1.9674184
96	0xbe546cb3	-0.2074459
97	0xbf9870fa	-1.1909478
98	0xbf271131	-0.65260607
99	0xbf62837c	-0.8848188
100	0x3e219c52	0.15782288
101	0xbf9e552c	-1.2369742
102	0x3f28292a	0.6568781
103	0xbf9164c1	-1.1358873
104	0xbfb4466f	-1.4083995
105	0xbf502a70	-0.81314754
106	0xbcccb8fe	-0.024990555
107	0xbef6766e	-0.4813723
108	0xc0863133	-4.193506
109	0xc0668a8a	-3.6022058
110	0x3f388958	0.7208457
111	0xbdcb751a	-0.09934445
112	0x3fb671ce	1.425348
113	0xbf1d95c1	-0.6155663
114	0x3fc969cc	1.5735412
115	0xc01ad829	-2.4194434
116	0x3fa1080e	1.2580583
117	0xbfb7e31d	-1.4366184
118	0xbeefad79	-0.46812037
119	0xbfaf76a0	-1.3708076
120	0xbfbca64d	-1.4738251
121	0x40ab1ef4	5.3475285
122	0xc093428d	-4.601874
123	0xbfa21244	-1.2661824
124	0xbedb1636	-0.42790383
125	0xbfbeb82e	-1.4899957
126	0xbea96262	-0.33082873
127	0xbfa76775	-1.3078448
128	0xbf09cd60	-0.53829
129	0x3f7c082c	0.9844997
130	0xbe9faebc	-0.31188
131	0xbf92169c	-1.141315
132	0xbf4ef214	-0.8083813
133	0x3d373545	0.044728536
134	0xc021557d	-2.5208428
135	0xbf2837de	-0.65710247
136	0xbedcb00d	-0.43103066
137	0x409034e2	4.5064554
138	0xc09cdb38	-4.90176
139	0xbe8de1d0	-0.27711344
140	0xc00f962c	-2.2435408
141	0xbf79ce67	-0.9758057
142	0xbf818b27	-1.0120591
143	0x3f918b8d	1.1370713
144	0x3d7e01bd	0.062013377
145	0xbeba54b6	-0.36392754
146	0xbf44bb8b	-0.7684867
147	0xbf1a800c	-0.60351634
148	0xc05e5564	-3.4739618
149	0x3ef58f0c	0.479607
150	0xbec603f7	-0.386749
151	0xc02afb81	-2.6716006
152	0xbef8955c	-0.48551452
153	0xbf6362d9	-0.88822705
154	0xbf197407	-0.5994267
155	0xbf2ae741	-0.66759115
156	0xbf20dbcf	-0.628354
157	0xc0392420	-2.89283
158	0xbeed84c1	-0.46390346
159	0x400143c7	2.0197618
160	0xbfb0ee15	-1.3822657
161	0x3f0c3b12	0.54777634
162	0xbf1880ab	-0.5957133
163	0xbfe9c67d	-1.8263699
164	0x3ed572b6	0.4168908
165	0x3f77b8a0	0.9676609
166	0x403542a2	2.832192
167	0xc07a3c22	-3.9099202
168	0xbf1dab4c	-0.61589503
169	0x400486fc	2.0707388
170	0xbe7c53a5	-0.24641283
171	0xbe7fcc59	-0.24980296
172	0xbef3f9b1	-0.47651437
173	0xbf6413e9	-0.8909288
174	0xbfb2902e	-1.395025
175	0xbfb8dc05	-1.4442145
176	0xbfa236ed	-1.2673012
177	0x3f7c09eb	0.98452634
178	0xbedc2a78	-0.4300115
179	0xc0912dd1	-4.536843
180	0x3fb78554	1.4337564
181	0xbecbc91f	-0.3980188
182	0xc01328a8	-2.2993565
183	0xc0003239	-2.0030653
184	0xbf753445	-0.9578288
185	0xc08a86c6	-4.328952
186	0xbfcb12b6	-1.5865085
187	0xbfe94cfb	-1.8226618
188	0xbfa60d8e	-1.2972887
189	0xc000942f	-2.0090444
190	0xbeab5e37	-0.33470318
191	0xbfdce8a5	-1.7258497
192	0xbda02a9d	-0.07820628
193	0xbe8b4887	-0.2720377
194	0x3ed4b29c	0.41542518
195	0xc056777f	-3.3510435
196	0xbf8eea11	-1.1165181
197	0xbf3fbdb1	-0.7489882
198	0xbeea983e	-0.45819277
199	0x3fd9642e	1.6983697
200	0xc026cc5b	-2.6062229
201	0xbf022d07	-0.50849956
202	0xbeca7077	-0.3953893
203	0xbe3888e2	-0.18020967
204	0xc042a861	-3.041527
205	0xbd37281a	-0.04471598
206	0xbfeb31e9	-1.8374606
207	0xc0369ed4	-2.853444
208	0xbf0ef3d6	-0.55840814
209	0xbce22bec	-0.027608834
210	0x40747615	3.8197072
211	0xbebdfd7b	-0.37107453
212	0xbfa150e1	-1.2602807
213	0x3fa27b81	1.269394
214	0xbf1c0734	-0.6094849
215	0xbfd8151d	-1.6881443
216	0xbefbd02f	-0.4918227
217	0xbfb80c05	-1.4378668
218	0xbefa9363	-0.48940572
219	0xc0061538	-2.095045
220	0xc0ab8920	-5.360489
221	0xbfca3591	-1.5797597
222	0xbf3d2ce1	-0.73896605
223	0xc00a76a6	-2.1634917
224	0x3e5a7354	0.21333057
225	0xbfc440a7	-1.533223
226	0xc02ae296	-2.6700797
227	0xbfb047f4	-1.3771958
228	0xbf10e26a	-0.5659548
229	0xbf4346f3	-0.76280135
230	0xbfc63f43	-1.5488056
231	0xbeb0a813	-0.3450323
232	0xbf213e86	-0.6298603
233	0xbffbbe38	-1.9667425
234	0xbfb010db	-1.3755144
235	0x3f6fcd17	0.9367232
236	0xc00e0928	-2.2193089
237	0xbf2bbcd5	-0.6708501
238	0xbf0dcb39	-0.5538822
239	0x3f1e8acb	0.6193053
240	0xc08580c6	-4.1719694
241	0xbfd8455d	-1.6896168
242	0xc02113d8	-2.5168362
243	0xbf87e7ba	-1.0617592
244	0xc033c3f6	-2.8088355
245	0xbf67ca0c	-0.90542674
246	0x3f005a60	0.501379
247	0xbef9b45d	-0.4877042
248	0xbef7568e	-0.48308223
249	0xbf158957	-0.5841269
250	0xbf994309	-1.1973583
251	0xbeec8caa	-0.46201068
252	0xbf37ae54	-0.7175038
253	0x401c7f60	2.4452744
254	0xbfde506b	-1.7368292
255	0x3fee8c03	1.8636478

bn1.running_mean f4 [256]
0	0x40b363e5	5.605944
1	0x3f024f20	0.50901985
2	0x4012ae35	2.2918828
3	0xc06f4870	-3.7387962
4	0xbfd398e6	-1.6531036
5	0x3eb39a8a	0.3507884
6	0x40d079a5	6.514849
7	0xbf791a70	-0.97305965
8	0x3fdda5f0	1.7316265
9	0x3ea17578	0.31534934
10	0x3ed78995	0.42097154
11	0xbf4a945b	-0.7913262
12	0xc0f30f9b	-7.595655
13	0x40011c38	2.0173473
14	0xc0169efa	-2.3534532
15	0x4047d1e3	3.1221855
16	0x3eec9436	0.46206826
17	0xbe577864	-0.21042019
18	0x4014524a	2.3175225
19	0xc00fe610	-2.248417
20	0xbf36c75b	-0.7139794
21	0xbfdfaf43	-1.7475361
22	0xbf0606c4	-0.52354074
23	0xc155abc7	-13.354438
24	0x411c54d3	9.770709
25	0x3e33ad39	0.17546548
26	0xbf0b9d9b	-0.5453736
27	0x3ff1cc49	1.8890468
28	0x41014c81	8.081178
29	0x3f9234a4	1.1422315
30	0xbfb0524a	-1.3775113
31	0x40887882	4.2647104
32	0xbf0f5bc2	-0.55999386
33	0x3dafd7ae	0.085860595
34	0x40ee9b2e	7.456443
35	0x3eb5648e	0.3542828
36	0xc0d81144	-6.7521076
37	0x3ec37e2a	0.38182193
38	0xc035b49c	-2.8391485
39	0x402b0222	2.6720052
40	0xc00c65fb	-2.1937244
41	0x3ea42a48	0.32063508
42	0x405b7238	3.4288464
43	0xc084ac7c	-4.146055
44	0xc1313d08	-11.0774
45	0x406fbf0b	3.7460353
46	0x41a1ed2c	20.240807
47	0x3e1c1651	0.15242888
48	0xc0f58da1	-7.6735387
49	0x404b11b0	3.1729546
50	0x4086071c	4.188368
51	0xc0918ffd	-4.5488267
52	0xbd2e9438	-0.04262182
53	0x3f8c52e5	1.0962797
54	0x3dbb3173	0.09140291
55	0x407394e7	3.8059633
56	0x406a278a	3.6586633
57	0x406a233a	3.6584
58	0x40ff42c6	7.976901
59	0xbe961082	-0.2930947
60	0x4143cdf6	12.237783
61	0x4152e1b3	13.180102
62	0x4138767e	11.528929
63	0x4051ff14	3.2811937
64	0x415af73f	13.685363
65	0x40622522	3.5335164
66	0x40cbcbdd	6.3686357
67	0xc0f949ea	-7.7902727
68	0x40438190	3.0547829
69	0x4171254f	15.071609
70	0x3f6bc960	0.9210415
71	0x40435984	3.0523386
72	0x3e90dde7	0.28294298
73	0x3ee89290	0.45424318
74	0xc0d882c1	-6.765961
75	0xc0b59c59	-5.6753354
76	0x405c7c5f	3.445091
77	0x41263f6a	10.390482
78	0x3ece52ed	0.40297642
79	0x408f534d	4.4789186
80	0xbf1ff27a	-0.62479365
81	0x3edc8f2b	0.43077978
82	0xc05b1bf4	-3.4235811
83	0xc00da0ab	-2.2129314
84	0xbec5d4fc	-0.38639057
85	0x411419ee	9.2563305
86	0xc0dd9698	-6.924633
87	0x4108bbbb	8.545833
88	0x4044354f	3.0657537
89	0x3ed1f966	0.41010588
90	0xc0249208	-2.571413
91	0x3f4fa5ef	0.8111257
92	0x3fe3fa51	1.7810766
93	0x3fb125fa	1.3839715
94	0xc1aaa603	-21.33106
95	0x4072db62	3.79464
96	0x4092eaf4	4.591181
97	0x4055b130	3.3389397
98	0x405d94b5	3.4622014
99	0x3fec0262	1.8438227
100	0x40b7cfba	5.7441072
101	0x3f9e6d13	1.2377037
102	0xbfc9bf22	-1.5761454
103	0x4023ace2	2.557427
104	0x3f3d4526	0.7393364
105	0xbf861661	-1.047558
106	0xbfabe663	-1.3429683
107	0x3fdcdda9	1.7255145
108	0xc087cc2a	-4.2436724
109	0x411bdef3	9.741931
110	0xc107df3b	-8.492
111	0x3f894e42	1.0727007
112	0xc031fcd2	-2.781056
113	0xbf17b1c6	-0.59255636
114	0x41147428	9.278358
115	0xc09475a9	-4.639363
116	0xbf92ec4e	-1.1478364
117	0x4084942c	4.1430874
118	0xbda1ce8d	-0.079007246
119	0x40719b4a	3.775103
120	0x4111617a	9.086298
121	0x416ad5c1	14.677186
122	0x41815fe1	16.171816
123	0xc14a4d72	-12.643908
124	0xbfc6ae08	-1.552186
125	0x3f32e3f2	0.69879067
126	0x3f8deffe	1.1088865
127	0x40b72cbe	5.7242117
128	0xbeaf12e5	-0.34194103
129	0x3e388526	0.18019542
130	0xbe6a727e	-0.22895238
131	0xbeb09d0f	-0.34494826
132	0x3f29fefa	0.6640469
133	0xc0ca9c29	-6.3315625
134	0xc02963ce	-2.6467166
135	0xbf89dc57	-1.0770367
136	0xbf86b877	-1.0525044
137	0x41956bd3	18.677649
138	0xc11a6bd2	-9.651323
139	0xc0d97309	-6.7952924
140	0xc08cdbcc	-4.4018307
141	0x3fea6291	1.831133
142	0x4041c850	3.027851
143	0xc13a041a	-11.626001
144	0x40aaa7c2	5.3329782
145	0xbfad4b83	-1.3538669
146	0xc0bf3b8b	-5.9760184
147	0xc1320248	-11.125557
148	0xc0306eb2	-2.7567563
149	0xc0878af6	-4.235713
150	0x400ed6f0	2.2318687
151	0xbf0b7183	-0.5447008
152	0xc0fb4d7c	-7.8532085
153	0xc12bfdeb	-10.749492
154	0xc036a8f2	-2.8540616
155	0x3f9e910b	1.2388014
156	0x3fc500ec	1.5390906
157	0x3fe885e6	1.8165863
158	0x401f01e8	2.4844913
159	0x41374783	11.454959
160	0x41190a2a	9.564981
161	0x4089ae27	4.302509
162	0x3f59e81b	0.8511979
163	0xc1247d5f	-10.280608
164	0xc0b78993	-5.7355437
165	0xc0904683	-4.5086074
166	0x3fc25526	1.5182235
167	0xc09dd864	-4.932665
168	0xbf813226	-1.0093429
169	0xc0518b05	-3.27411
170	0x40527ca5	3.2888577
171	0x4117c7b7	9.4862585
172	0x3da9dfc3	0.08294632
173	0xbead2cd6	-0.3382327
174	0x3f2ca2c9	0.6743589
175	0x40eda34f	7.426185
176	0xbec3a605	-0.382126
177	0xc0efc7e3	-7.49315
178	0xbf31e7ee	-0.6949452
179	0x40cda908	6.4268837
180	0xc1c1b2dc	-24.212334
181	0x3fdfc96c	1.7483344
182	0xc067c0f4	-3.621152
183	0x40d756f2	6.7293634
184	0xbfd2e06e	-1.647474
185	0xc0a82a9f	-5.255203
186	0x3fa88c90	1.3167896
187	0xc07f688e	-3.9907565
188	0xc043e61a	-3.0609193
189	0xc1073aa2	-8.451815
190	0xc065380b	-3.5815456
191	0xbea0e8e0	-0.3142767
192	0x3f07e801	0.53088385
193	0xbeea0782	-0.45708853
194	0xc1310a89	-11.065072
195	0xc0b6a67a	-5.707822
196	0xc09dbb2e	-4.929099
197	0x412487b0	10.283127
198	0x3d422b8e	0.04740482
199	0xc09e16ca	-4.940282
200	0x40c9d3fa	6.307126
201	0xc0cc7c6a	-6.3901873
202	0xbfc205a1	-1.5157968
203	0x4011205d	2.2676003
204	0x401ec97b	2.4810474
205	0xbfdcd396	-1.7252071
206	0xc01d7cc9	-2.4607413
207	0x4097ea9a	4.747388
208	0x3cf13698	0.029444978
209	0x4052fd42	3.2967076
210	0x416e0fd7	14.878867
211	0xbeb9d31f	-0.36293885
212	0x3fb2fb04	1.3982854
213	0x4036d940	2.85701
214	0xbd2d8af7	-0.042368855
215	0x401671b0	2.350689
216	0xbfb20d8c	-1.3910384
217	0xc1cb4cae	-25.412441
218	0xbf345e9c	-0.7045686
219	0xc0888e92	-4.2674036
220	0x40563d55	3.3474934
221	0x3fd18320	1.6368141
222	0x3f88af27	1.0678452
223	0xc0d964c0	-6.7935486
224	0x3fc29799	1.5202514
225	0x40aa8592	5.328805
226	0xbfe39e97	-1.7782773
227	0xbfc07989	-1.503709
228	0xbea05e85	-0.31322113
229	0xbf4837f1	-0.7821036
230	0x410f8ca7	8.971839
231	0xbf69b4b4	-0.91291356
232	0xbe8325ba	-0.2561472
233	0x40e06d64	7.0133533
234	0x3eee05d0	0.4648881
235	0x411d1691	9.818009
236	0xc04e33c8	-3.2219105
237	0x402dc20f	2.7149694
238	0x4068739b	3.632056
239	0x3f7cb977	0.98720497
240	0x3f0e62e6	0.5561966
241	0x3e39c1f6	0.18140396
242	0xc080e956	-4.0284834
243	0x3fd929ac	1.6965842
244	0x415b84c4	13.7199135
245	0x3fa3429d	1.2754704
246	0x40a2de0a	5.0896044
247	0xc05e8edb	-3.4774692
248	0xc118f5be	-9.559996
249	0xbf45b337	-0.77226585
250	0x3f1b1740	0.6058235
251	0xc0cab43b	-6.334501
252	0xbf593a52	-0.84854615
253	0x417522a7	15.32096
254	0xbfde8bc1	-1.73864
255	0xc0f6d67a	-7.713681

bn1.running_var f4 [256]
0	0x41b934ce	23.150784
1	0x42730459	60.754246
2	0x42a0233a	80.0688
3	0x42949d3c	74.3071
4	0x41de739c	27.80645
5	0x3f76b22d	0.96365625
6	0x4273a0d0	60.907043
7	0x3f897f7a	1.0742028
8	0x3f8895da	1.0670731
9	0x3ebc4e5a	0.36778527
10	0x42162811	37.539127
11	0x3f3c3be3	0.7352888
12	0x4298db83	76.428734
13	0x40797627	3.8978364
14	0x42800716	64.01384
15	0x42e3b8ce	113.86095
16	0x3e86c367	0.26320955
17	0x3f6ab1f8	0.9167781
18	0x41127dce	9.155714
19	0x3f9bf9c7	1.2185601
20	0x4114877f	9.28308
21	0x3f96cf10	1.178194
22	0x42e1de79	112.93452
23	0x427e738d	63.612843
24	0x42055237	33.330288
25	0x3efcb1ff	0.4935455
26	0x3fbc9722	1.4733622
27	0x42524a69	52.572666
28	0x428a079b	69.014854
29	0x3fb85c58	1.4403181
30	0x3eed7a16	0.46382207
31	0x427e4db3	63.57588
32	0x3f10c056	0.5654348
33	0x403acda1	2.9188006
34	0x424dc0ca	51.43827
35	0x4001e796	2.02976
36	0x422511f5	41.267536
37	0x428b4bbc	69.64792
38	0x4069ec64	3.6550531
39	0x402ff135	2.749097
40	0x43136f6c	147.43524
41	0x3f93f013	1.155764
42	0x416e2a82	14.885378
43	0x41b51adb	22.638113
44	0x40c7d65d	6.2449174
45	0x42fa270b	125.076256
46	0x425003d1	52.003727
47	0x41a5c679	20.72191
48	0x41843559	16.526049
49	0x42a1a5d4	80.82388
50	0x432244c5	162.26863
51	0x41c12fcc	24.148338
52	0x40c0744f	6.014198
53	0x42b3a39e	89.819565
54	0x4145c0f2	12.359606
55	0x431fa818	159.65662
56	0x4296ae16	75.34001
57	0x42ff3853	127.61001
58	0x42bdcbba	94.8979
59	0x3f3c92a7	0.73661274
60	0x42259146	41.39187
61	0x43122f90	146.18579
62	0x426004e4	56.004776
63	0x42899acc	68.80234
64	0x42f4feb5	122.497475
65	0x408f86e1	4.4852147
66	0x427fb08e	63.922417
67	0x42a61828	83.04718
68	0x42f6b518	123.3537
69	0x42d9cc28	108.89874
70	0x42a0c45b	80.38351
71	0x420496e7	33.147366
72	0x3f1cbda5	0.61226875
73	0x402bd2d9	2.6847441
74	0x428dc67b	70.88766
75	0x42275fe0	41.843628
76	0x42ee6a82	119.20802
77	0x430516f8	133.08972
78	0x3eb9a393	0.3625761
79	0x41fafe6e	31.374233
80	0x412a9b04	10.662846
81	0x3e8fc429	0.28079346
82	0x429e8619	79.26191
83	0x405f5679	3.4896529
84	0x3fa0aeb6	1.2553318
85	0x4239b752	46.429024
86	0x420bb3cd	34.925587
87	0x42a10e22	80.5276
88	0x411f5eb3	9.96062
89	0x40b15ad8	5.5423393
90	0x40b5f5c9	5.686253
91	0x3ed07159	0.40711477
92	0x428c7db8	70.245544
93	0x3f661a7b	0.89884156
94	0x4321fc7c	161.98627
95	0x42f830a9	124.09504
96	0x415cc6c8	13.798531
97	0x4159ed6e	13.620466
98	0x42b999a9	92.80012
99	0x4044a4c1	3.0725558
100	0x4271770b	60.366253
101	0x413123ad	11.07121
102	0x42cd8fb1	102.78065
103	0x4022783e	2.538589
104	0x40968401	4.7036138
105	0x3edf5ff9	0.4362791
106	0x3f852e8a	1.0404828
107	0x3f89d2be	1.0767438
108	0x4290bd17	72.369316
109	0x428965b4	68.69864
110	0x42dc7d7d	110.245094
111	0x40ddab76	6.9271803
112	0x430a1332	138.07498
113	0x3efc2e23	0.4925395
114	0x42ae5ac1	87.17725
115	0x42d75a3d	107.67625
116	0x428e2fdc	71.093475
117	0x42afd04d	87.90684
118	0x3ec0b163	0.37635335
119	0x41b007eb	22.003866
120	0x425059e1	52.087772
121	0x42d2b906	105.361374
122	0x42c45847	98.17242
123	0x41709e45	15.03864
124	0x4005cf07	2.090761
125	0x426fa253	59.90852
126	0x4042bb38	3.042677
127	0x42504715	52.069416
128	0x3ff353ea	1.9009984
129	0x42d14451	104.63343
130	0x3f0d56da	0.5521065
131	0x3f591918	0.84803915
132	0x3fa214c3	1.2662586
133	0x42c3da8e	97.926865
134	0x42a4600e	82.18761
135	0x3f3ad107	0.729752
136	0x3f52d24d	0.82352144
137	0x426b056a	58.755287
138	0x430960a5	137.37752
139	0x4202434c	32.56572
140	0x42be9ec7	95.31011
141	0x3ffa33e1	1.9547082
142	0x40e1fbcb	7.0619864
143	0x42ac59fa	86.175735
144	0x430d7469	141.45473
145	0x3f6a83c0	0.91607285
146	0x416de48d	14.868299
147	0x420a95e8	34.646393
148	0x42966f49	75.217354
149	0x431883b6	152.5145
150	0x40309384	2.7590036
151	0x437bbee1	251.74562
152	0x414d516d	12.832379
153	0x42bf42c0	95.63037
154	0x3fdccc79	1.72499
155	0x41aaaf65	21.335642
156	0x3f1f097b	0.6212384
157	0x42991cc7	76.556206
158	0x415f73d0	13.965775
159	0x41ca23d6	25.267498
160	0x428e4171	71.127815
161	0x430e64e0	142.39404
162	0x3ebdc0e7	0.37061235
163	0x428c601f	70.18774
164	0x42f927b6	124.57756
165	0x430ae7ee	138.90598
166	0x42443822	49.054817
167	0x42da69e5	109.206825
168	0x4077f46c	3.8742933
169	0x427664bb	61.59837
170	0x4309d74e	137.84103
171	0x41f72096	30.890911
172	0x3f0c5222	0.54812825
173	0x4007351a	2.112616
174	0x4050a695	3.2601674
175	0x41a37c50	20.4357
176	0x42a36628	81.699524
177	0x4244f468	49.238678
178	0x4233172a	44.77262
179	0x42afeb99	87.96015
180	0x4258be21	54.185673
181	0x40060094	2.0937853
182	0x422ec6ac	43.694016
183	0x42ce9b71	103.3036
184	0x3f181494	0.594064
185	0x4208ad91	34.1695
186	0x4161ee01	14.120606
187	0x425a1f17	54.53036
188	0x41fc0d89	31.506609
189	0x42977279	75.72358
190	0x41055b1b	8.334743
191	0x42dde227	110.9417
192	0x3f0744b9	0.5283924
193	0x3f9b82cc	1.2149291
194	0x4304ae89	132.68178
195	0x42eab602	117.355484
196	0x4283879a	65.76485
197	0x41ba116c	23.258507
198	0x41369d6b	11.413432
199	0x424f1146	51.76687
200	0x431a49a8	154.28772
201	0x41210598	10.063866
202	0x40092e43	2.1434486
203	0x4224bada	41.182472
204	0x42511e6e	52.279716
205	0x3f5763d5	0.84136707
206	0x42f41409	122.03913
207	0x430f98dd	143.59712
208	0x3ff10ccd	1.8832031
209	0x437872b9	248.44814
210	0x4243c0d5	48.938313
211	0x3f3ae502	0.7300569
212	0x3fadfeab	1.3593343
213	0x42ea04a6	117.00908
214	0x42737eaa	60.873695
215	0x425234c4	52.55153
216	0x402974a0	2.6477432
217	0x421be66d	38.975025
218	0x403ac4d5	2.9182637
219	0x424baa77	50.91647
220	0x4295ddae	74.93297
221	0x42849246	66.28569
222	0x3e8348bc	0.2564143
223	0x431ba643	155.64946
224	0x42f7bf69	123.87385
225	0x4144da85	12.3033495
226	0x42fb616f	125.6903
227	0x427724a0	61.785767
228	0x424f16f2	51.772408
229	0x401b438d	2.425998
230	0x42c5dc46	98.93022
231	0x3f58a527	0.84627
232	0x3ea906db	0.33013043
233	0x4256af11	53.670963
234	0x406c41d6	3.6915183
235	0x42cc91b7	102.2846
236	0x427030fa	60.04783
237	0x4218da75	38.213337
238	0x42927f1b	73.24825
239	0x42beea44	95.45755
240	0x42c64c4a	99.149
241	0x41b135ab	22.151205
242	0x42806973	64.205956
243	0x3fb45717	1.4089078
244	0x41fcdcb3	31.607763
245	0x3fbb0f98	1.4614134
246	0x4303fe80	131.99414
247	0x42964ba9	75.14777
248	0x42a9332d	84.59995
249	0x41857064	16.679878
250	0x4070f127	3.7647188
251	0x42ef8508	119.75983
252	0x3e7f3023	0.24920706
253	0x422768d9	41.85239
254	0x42791a65	62.275776
255	0x42cac372	101.38173

l2.weight f4 [512, 256]
0	0x3f32e982	0.69887555
1	0xbe26535e	-0.1624274
2	0x3ea470ed	0.32117406
3	0xbf623aeb	-0.8837115
4	0xbe19fd6c	-0.15038079
5	0x3d6c0411	0.057621066
6	0x3f731a01	0.94961554
7	0x3d3b3f0e	0.04571443
8	0xbe821f44	-0.2541448
9	0x3da359fa	0.07976146
10	0xbf857df0	-1.0429058
11	0x3e7842c5	0.2424422
12	0xbf621f3b	-0.88328904
13	0x3c66180d	0.01404382
14	0xbfab6a4b	-1.3391813
15	0x3f9f1da2	1.2430918
16	0x3dda3793	0.10655131
17	0x3ec39a80	0.38203812
18	0x3e462641	0.1935053
19	0x3b15b5b9	0.002284391
20	0x3e65fa1e	0.22458693
21	0x3d2bf8b8	0.041985244
22	0x3ef24929	0.47321442
23	0x3e92f325	0.2870113
24	0xbfa6a0da	-1.3017838
25	0x3e84fd00	0.25974274
26	0x3db18d97	0.08669584
27	0xbdfef686	-0.12449364
28	0xbf8fea9d	-1.1243473
29	0x3e3feb66	0.18742141
30	0xbe94333e	-0.28945345
31	0xbf573b32	-0.840747
32	0x3e15fb6b	0.1464669
33	0x3e02b02a	0.12762514
34	0xbf282246	-0.656773
35	0x3deeec38	0.11666149
36	0x3e124d01	0.14287187
37	0x3f8aad20	1.0834084
38	0xbe73df64	-0.23815686
39	0xbe8020d0	-0.25025034
40	0xbdc039c1	-0.09386016
41	0x3e323b7a	0.17405501
42	0x3c160a7f	0.009157776
43	0xbead6c54	-0.3387171
44	0x3e83d22f	0.25746295
45	0x3f5cf59e	0.8631228
46	0x3ea1743b	0.3153399
47	0x3edb8549	0.42875126
48	0x3f38e93f	0.72230905
49	0xbf32545b	-0.69659966
50	0xbf52064d	-0.82040864
51	0x3d44d100	0.04805088
52	0xbe8f9807	-0.28045675
53	0x3d806c33	0.06270637
54	0xbd15f354	-0.03660901
55	0xbf261fea	-0.64892447
56	0x3f14c367	0.5811066
57	0x3f74470e	0.9542092
58	0x3f5c9352	0.8616229
59	0xbe294f4e	-0.16534159
60	0x3f852381	1.040146
61	0x3ee06add	0.4383153
62	0xbc99f712	-0.01879457
63	0x3eeaca7e	0.45857614
64	0xbf7cc6f0	-0.98741055
65	0xbe3fe33f	-0.18739031
66	0xbf27cbd2	-0.6554538
67	0xbec4b6a8	-0.38420606
68	0x3f3cca02	0.7374574
69	0x3f88bff7	1.0683583
70	0xbe10ca0c	-0.14139575
71	0xbf53cb37	-0.82731956
72	0xbe039a79	-0.12851895
73	0x3e057674	0.13033468
74	0xc02288e8	-2.539606
75	0xbd4dc445	-0.050236005
76	0x3f5c6179	0.8608623
77	0xbf20a505	-0.627518
78	0x3e093aee	0.13401386
79	0x3f052660	0.5201168
80	0xbe4e0a75	-0.20121177
81	0xbcf31ec1	-0.02967775
82	0x3ee59e1d	0.44847193
83	0xbf0c53ec	-0.54815555
84	0x3e10ba7a	0.14133635
85	0xbeaf3cb0	-0.34225988
86	0xbf1eb83b	-0.61999863
87	0xbf9b0ccc	-1.211328
88	0x3e7e805a	0.2485365
89	0xbea93bd0	-0.33053446
90	0x3e5b1140	0.21393299
91	0xbe176f6a	-0.14788595
92	0x3f6866d7	0.9078192
93	0x3ca9042c	0.020631872
94	0xbd0aeb73	-0.033915948
95	0xbf323911	-0.69618326
96	0xbde88c41	-0.11354876
97	0xbd12a562	-0.035802253
98	0x3f98e177	1.1943806
99	0x3c97d0ce	0.018532183
100	0xbfa8d884	-1.3191075
101	0x3e61e375	0.22059424
102	0x3e9d240c	0.30691564
103	0xbe8c15cf	-0.2736039
104	0x3ea36d8d	0.31919518
105	0xbec66719	-0.38750532
106	0xbe26e690	-0.1629889
107	0xbdbb7c5b	-0.09154578
108	0x3f10e7c7	0.56603664
109	0xbe9c9493	-0.30582103
110	0xbd7361db	-0.059419494
111	0x3f32ee5f	0.69894975
112	0xbee72f37	-0.4515321
113	0x3db37744	0.087629825
114	0x3ee3e4c3	0.4451047
115	0xbe907c8e	-0.28220028
116	0x3f1e6cb2	0.61884606
117	0x3fa6af01	1.3022157
118	0x3da891d0	0.082309365
119	0x3e08b47b	0.13350098
120	0x3e26f9e2	0.1630626
121	0xbf515c02	-0.8178102
122	0x3e872771	0.2639728
123	0x3e620d0f	0.22075294
124	0x3dd62e78	0.10458082
125	0xc016956f	-2.3528707
126	0x3d727ade	0.059199207
127	0x3a5cb29b	0.0008418948
128	0xbe1d48ba	-0.15359774
129	0x3f3af41e	0.73028743
130	0x3e4a7e5d	0.19774766
131	0xbde26a8d	-0.11055479
132	0xbe933a1f	-0.2875528
133	0xbf24960a	-0.6429144
134	0x3f7d832d	0.99028283
135	0x3ce201a6	0.027588677
136	0xbedc2ac6	-0.43001384
137	0xbf4d4e03	-0.8019716
138	0xbef70952	-0.48249298
139	0x3f80d827	1.0065964
140	0xbeffe936	-0.49982613
141	0x3e1a42de	0.1506457
142	0xbeb0eed8	-0.34557223
143	0x3e18c75c	0.149198
144	0x3f07cb93	0.53045005
145	0x3d7b4dbc	0.06135343
146	0x3e14519d	0.14484258
147	0x3ddebd07	0.10875898
148	0x3e0f13d1	0.13972403
149	0xbe3e4315	-0.18580277
150	0x3eb5b9ee	0.35493416
151	0x3e7b3c0d	0.24534626
152	0xbea5c944	-0.32380116
153	0xbe2b295f	-0.16715
154	0x3d85f706	0.065412566
155	0x3f5eaa6c	0.86978793
156	0xbdcffcca	-0.101556376
157	0xbf071802	-0.5277101
158	0xbb332ff2	-0.002734181
159	0x3e8d8d97	0.27647087
160	0x3f1c7e45	0.6113017
161	0x3f990401	1.1954347
162	0xbe478b56	-0.19486746
163	0x3f819035	1.0122133
164	0x3f2deefb	0.6794278
165	0xbe45cdd8	-0.19316804
166	0x3e39e25f	0.1815276
167	0x3e37da01	0.17954256
168	0x3e344953	0.17606096
169	0xbfc939a4	-1.5720716
170	0x3f29a480	0.6626663
171	0xbf0dd7a9	-0.55407196
172	0x3e996f8a	0.2996791
173	0x3e7d44c3	0.24733262
174	0x3d51c2fa	0.051211335
175	0x3f93e575	1.15544
176	0x3d3cd88a	0.046104945
177	0x3f0f7717	0.5604109
178	0xbdd522c8	-0.104070246
179	0x3daf5aeb	0.08562263
180	0xbd3813a6	-0.044940613
181	0xbe392842	-0.18081763
182	0x3e13bacf	0.1442673
183	0xbf6cf640	-0.9256325
184	0x3e6e3443	0.23262124
185	0xbd90a059	-0.07061834
186	0x3f376d89	0.7165151
187	0xbeabd7a0	-0.33562946
188	0x3f07d19d	0.5305422
189	0xbebc633e	-0.36794466
190	0x3edc5051	0.43030027
191	0xbf031dae	-0.5121716
192	0xbc11a05e	-0.008888332
193	0x3d81d4e1	0.063394316
194	0x3f9c9af0	1.2234783
195	0x3f70d458	0.9407401
196	0x3f2d870e	0.677842
197	0xbf035450	-0.51300526
198	0xbf1076dd	-0.5643137
199	0x3f3c2195	0.7348874
200	0xbf5ffc0d	-0.87493974
201	0x3f082ae1	0.5319043
202	0xbe8bd5cd	-0.27311555
203	0xbf1e9ffd	-0.6196287
204	0xbe19f618	-0.15035284
205	0x3e1f83f3	0.15577678
206	0x3f2cc6cd	0.67490846
207	0x3f868615	1.0509669
208	0x3e16f5f5	0.14742263
209	0xbf2d3619	-0.6766067
210	0xbfabad3b	-1.3412241
211	0xbd7fa791	-0.062415663
212	0xbe808fc6	-0.2510969
213	0x3f2fc9a0	0.6866703
214	0xbe9e873b	-0.30962548
215	0x3ee02a70	0.43782377
216	0xbe421f48	-0.18957245
217	0x3edf518c	0.43616903
218	0x3db5a0c2	0.08868553
219	0x3e7fc320	0.24976778
220	0xbf0b7060	-0.54468346
221	0x3f97c1be	1.1856
222	0xbd6d2826	-0.057899617
223	0x3dadf309	0.08493621
224	0x3f42166d	0.7581547
225	0x3dee34e4	0.11631182
226	0x3e1173b6	0.14204296
227	0x3d6ca249	0.057771955
228	0xbe215af1	-0.15757348
229	0x3e004bb9	0.12528886
230	0xbf637e45	-0.88864547
231	0xbe36cc4f	-0.17851375
232	0x3e5c9de5	0.21544607
233	0xbf2a81c3	-0.6660425
234	0x3e55853f	0.2085161
235	0x40153b55	2.3317463
236	0x3ee48e59	0.44639853
237	0xbcce525a	-0.025185753
238	0x3f03e618	0.5152297
239	0x3ee63abb	0.44966683
240	0x3e3d4ed9	0.18487109
241	0xbec56dd7	-0.38560364
242	0x3f9b1686	1.2116249
243	0xbe5dafec	-0.2164914
244	0x3f500d5a	0.8127037
245	0xbda79323	-0.08182361
246	0xbf0d418e	-0.55178154
247	0x3f13e1a2	0.57766163
248	0xbdbe24cf	-0.092843644
249	0xbf165316	-0.5872053
250	0xbec4a9b0	-0.3841071
251	0xbef13964	-0.47114098
252	0xbcfa59d8	-0.030560419
253	0xbdcfef21	-0.10153032
254	0x3d9af3cc	0.07566032
255	0xbf545634	-0.82944036
